…
... ... Processed 390 images
X_train:	(5216, 224, 224, 1)
y_train:	(5216, 2)
X_test:	(624, 224, 224, 1)
y_test:	(624, 2)
... define model
WARNING:tensorflow:From /Library/Frameworks/Python.framework/Versions/3.6/lib/python3.6/site-packages/keras/backend/tensorflow_backend.py:4070: The name tf.nn.max_pool is deprecated. Please use tf.nn.max_pool2d instead.

Model: "sequential_1"
_________________________________________________________________
Layer (type)                 Output Shape              Param #
=================================================================
conv2d_1 (Conv2D)            (None, 224, 224, 32)      832
_________________________________________________________________
max_pooling2d_1 (MaxPooling2 (None, 112, 112, 32)      0
_________________________________________________________________
conv2d_2 (Conv2D)            (None, 112, 112, 6)       4806
_________________________________________________________________
max_pooling2d_2 (MaxPooling2 (None, 56, 56, 6)         0
_________________________________________________________________
flatten_1 (Flatten)          (None, 18816)             0
_________________________________________________________________
dense_1 (Dense)              (None, 1024)              19268608
_________________________________________________________________
dense_2 (Dense)              (None, 2)                 2050
=================================================================
Total params: 19,276,296
Trainable params: 19,276,296
Non-trainable params: 0
_________________________________________________________________
None
... fit model
2019-10-05 11:05:25.861264: I tensorflow/core/platform/cpu_feature_guard.cc:142] Your CPU supports instructions that this TensorFlow binary was not compiled to use: AVX2 FMA
…
