…
:	0, failed:	30220... ... Processed:	0, failed:	30221... ... Processed:	0, failed:	30222... ... Processed:	0, failed:	30223... ... Processed:	0, failed:	30224... ... Processed:	0, failed:	30225... ... Processed:	0, failed:	30226... ... Processed:	0, failed:	30227... ... Processed 0 images
... ... Could not load 30227 images
... define model
Model: "sequential_1"
_________________________________________________________________
Layer (type)                 Output Shape              Param #   
=================================================================
conv2d_1 (Conv2D)            (None, 224, 224, 32)      320       
_________________________________________________________________
max_pooling2d_1 (MaxPooling2 (None, 112, 112, 32)      0         
_________________________________________________________________
conv2d_2 (Conv2D)            (None, 112, 112, 64)      18496     
_________________________________________________________________
max_pooling2d_2 (MaxPooling2 (None, 56, 56, 64)        0         
_________________________________________________________________
flatten_1 (Flatten)          (None, 200704)            0         
_________________________________________________________________
dense_1 (Dense)              (None, 1024)              205521920 
_________________________________________________________________
dense_2 (Dense)              (None, 2)                 2050      
=================================================================
Total params: 205,542,786
Trainable params: 205,542,786
Non-trainable params: 0
_________________________________________________________________
None
>>> For epochs: 1
... fit model
Train on 5216 samples, validate on 624 samples
Epoch 1/1

  32/5216 [..............................] - ETA: 10:54 - loss: 13.3082 - accuracy: 0.5000
…
