…
2019-10-28 22:47:30.780412: I tensorflow/core/platform/profile_utils/cpu_utils.cc:94] CPU Frequency: 2200000000 Hz
2019-10-28 22:47:30.781750: I tensorflow/compiler/xla/service/service.cc:168] XLA service 0x3768840 executing computations on platform Host. Devices:
2019-10-28 22:47:30.781780: I tensorflow/compiler/xla/service/service.cc:175]   StreamExecutor device (0): Host, Default Version
Model: "sequential_1"
_________________________________________________________________
Layer (type)                 Output Shape              Param #
=================================================================
conv2d_1 (Conv2D)            (None, 224, 224, 32)      320
_________________________________________________________________
max_pooling2d_1 (MaxPooling2 (None, 112, 112, 32)      0
_________________________________________________________________
conv2d_2 (Conv2D)            (None, 112, 112, 64)      18496
_________________________________________________________________
max_pooling2d_2 (MaxPooling2 (None, 56, 56, 64)        0
_________________________________________________________________
flatten_1 (Flatten)          (None, 200704)            0
_________________________________________________________________
dense_1 (Dense)              (None, 1024)              205521920
_________________________________________________________________
dense_2 (Dense)              (None, 2)                 2050
=================================================================
Total params: 205,542,786
Trainable params: 205,542,786
Non-trainable params: 0
_________________________________________________________________
None
>>> For epochs: 4
... fit model
Train on 35443 samples, validate on 624 samples
Epoch 1/4
35443/35443 [==============================] - 1838s 52ms/step - loss: 11.4379 - accuracy: 0.7379 - val_loss: 0.4082 - val_accuracy: 0.8117
…
