…
2019-10-12 12:26:37.646659: I tensorflow/core/platform/cpu_feature_guard.cc:142] Your CPU supports instructions that this TensorFlow binary was not compiled to use: AVX2 FMA
2019-10-12 12:26:37.692946: I tensorflow/compiler/xla/service/service.cc:168] XLA service 0x7f9e6c418850 executing computations on platform Host. Devices:
2019-10-12 12:26:37.692979: I tensorflow/compiler/xla/service/service.cc:175]   StreamExecutor device (0): Host, Default Version
Model: "sequential_1"
_________________________________________________________________
Layer (type)                 Output Shape              Param #
=================================================================
conv2d_1 (Conv2D)            (None, 224, 224, 32)      832
_________________________________________________________________
max_pooling2d_1 (MaxPooling2 (None, 112, 112, 32)      0
_________________________________________________________________
conv2d_2 (Conv2D)            (None, 112, 112, 6)       4806
_________________________________________________________________
max_pooling2d_2 (MaxPooling2 (None, 56, 56, 6)         0
_________________________________________________________________
flatten_1 (Flatten)          (None, 18816)             0
_________________________________________________________________
dense_1 (Dense)              (None, 1024)              19268608
_________________________________________________________________
dense_2 (Dense)              (None, 2)                 2050
=================================================================
Total params: 19,276,296
Trainable params: 19,276,296
Non-trainable params: 0
_________________________________________________________________
None
>>> For epochs: 10
... fit model
Train on 5216 samples, validate on 624 samples
Epoch 1/10
5216/5216 [==============================] - 363s 70ms/step - loss: 29.5957 - accuracy: 0.8453 - val_loss: 0.8546 - val_accuracy: 0.7997
…
